…
2018-04-24 14:57:39.194328: I tensorflow/core/common_runtime/gpu/gpu_device.cc:1105] Found device 0 with properties: 
name: GeForce GTX TITAN X major: 5 minor: 2 memoryClockRate(GHz): 1.076
pciBusID: 0000:05:00.0
totalMemory: 11.92GiB freeMemory: 11.80GiB
2018-04-24 14:57:39.194374: I tensorflow/core/common_runtime/gpu/gpu_device.cc:1195] Creating TensorFlow device (/device:GPU:0) -> (device: 0, name: GeForce GTX TITAN X, pci bus id: 0000:05:00.0, compute capability: 5.2)
_________________________________________________________________
Layer (type)                 Output Shape              Param #   
=================================================================
batch_normalization_1 (Batch (None, 24, 24, 1)         4         
_________________________________________________________________
dropout_1 (Dropout)          (None, 24, 24, 1)         0         
_________________________________________________________________
conv2d_1 (Conv2D)            (None, 24, 24, 32)        320       
_________________________________________________________________
activation_1 (Activation)    (None, 24, 24, 32)        0         
_________________________________________________________________
max_pooling2d_1 (MaxPooling2 (None, 12, 12, 32)        0         
_________________________________________________________________
batch_normalization_2 (Batch (None, 12, 12, 32)        128       
_________________________________________________________________
gaussian_noise_1 (GaussianNo (None, 12, 12, 32)        0         
_________________________________________________________________
flatten_1 (Flatten)          (None, 4608)              0         
_________________________________________________________________
dense_1 (Dense)              (None, 256)               1179904   
_________________________________________________________________
activation_2 (Activation)    (None, 256)               0         
_________________________________________________________________
batch_normalization_3 (Batch (None, 256)               1024      
_________________________________________________________________
dropout_2 (Dropout)          (None, 256)               0         
_________________________________________________________________
dense_2 (Dense)              (None, 128)               32896     
_________________________________________________________________
activation_3 (Activation)    (None, 128)               0         
_________________________________________________________________
batch_normalization_4 (Batch (None, 128)               512       
_________________________________________________________________
dropout_3 (Dropout)          (None, 128)               0         
_________________________________________________________________
dense_3 (Dense)              (None, 1)                 129       
_________________________________________________________________
activation_4 (Activation)    (None, 1)                 0         
=================================================================
Total params: 1,214,917
Trainable params: 1,214,083
Non-trainable params: 834
_________________________________________________________________
Epoch 1/100
3009/3008 [==============================] - 42s 14ms/step - loss: 0.1018 - acc: 0.9643 - val_loss: 0.0312 - val_acc: 0.9917
Epoch 2/100
3009/3008 [==============================] - 38s 12ms/step - loss: 0.0681 - acc: 0.9771 - val_loss: 0.0213 - val_acc: 0.9942
…
